discriminator.pth (torch, 560463 bytes, 9 tensors)

conv.0.weight f4 [64, 1, 4, 4]
-0.1883899 -0.050140116 -0.0999141 0.026483046 0.040716115 0.06479708 0.11686223 0.020093238
-0.21852235 -0.13144451 0.023412563 -0.0901617 0.25035405 0.06557809 -0.28005168 0.26592854
0.1711387 0.13576323 0.16095585 0.04226421 0.24398778 0.15126574 -0.12845206 -0.136298
-0.25497675 -0.13806769 0.1437175 -0.10134992 -0.17054671 -0.20390895 -0.1229758 0.1772009
-0.05208744 0.0046044295 -0.12477598 -0.17938565 0.056776986 -0.1204761 -0.26463926 -0.14540264
-0.0047130114 -0.055671055 0.07592513 0.2544733 -0.015255989 0.1893129 -0.07894797 0.05354755
-0.25880545 0.11862336 0.14429413 0.025966141 -0.23465648 0.05515432 0.10963222 -0.09576468
0.016817274 0.18467247 0.22063577 -0.15549962 -0.060335327 0.098646656 -0.0028473977 0.0242026
0.0011770426 0.131447 0.04881836 0.09316284 -0.24095635 0.18839681 0.25512677 0.08118501
0.060885984 -0.053903453 0.27668843 -0.085837245 -0.21696125 -0.22412679 -0.07853459 -0.2272214
0.13801536 0.23980096 0.13828743 0.1064122 0.17743228 -0.15215807 -0.10674772 -0.04258797
-0.18306041 -0.072013564 -0.05650145 -0.021808486 0.15937875 0.2074346 -0.21164134 0.09030095
0.19657524 -0.0678159 0.20273817 0.19089603 0.094736695 0.049065586 0.026155028 -0.079429425
-0.11395846 -0.06099839 0.048422102 0.14132641 -0.06250226 -0.14209372 -0.21309564 0.10159107
0.16166371 0.18312062 0.18563236 -0.39102286 -0.0570891 -0.05572194 -0.14266759 0.21006168
-0.009911615 -0.117411524 -0.075079635 0.2018665 -0.10544054 0.09452926 -0.21351494 0.21418726
-0.244978 -0.11095251 -0.27655312 0.036365468 -0.036983397 -0.26280063 0.062216714 -0.09624227
0.2829078 0.30880472 0.1396298 -0.13539588 -0.060649205 0.0669356 0.06746213 0.09996854
-0.05642852 0.038999017 0.22391959 0.1465342 0.048588857 -0.0073706787 -0.20380777 -0.11433179
-0.045034647 -0.3511477 -0.016543746 0.15426536 0.0074557704 -0.028489135 0.2497134 0.17702025
0.027799273 -0.0054330453 -0.008283109 -0.001335459 0.051184047 0.07940396 -0.07359226 -0.0660148
-0.076135896 -0.27192488 0.26684347 0.07551995 -0.060702793 0.19974762 -0.038023017 -0.09974084
-0.21904643 -0.1421122 -0.021048 0.215286 -0.04589391 -0.07606166 0.15796167 -0.18522522
0.12850468 0.1377738 0.09831855 -0.18400417 0.163202 -0.21149662 0.031472076 0.097973265
0.2034214 0.25381553 0.062127307 -0.1490496 -0.09305332 0.20414972 -0.16281268 -0.05853684
-0.14339706 -0.18423149 -0.13781178 0.067031235 0.043214146 -0.0762884 -0.020421414 0.0036481905
0.107438736 -0.21015516 0.1033195 -0.11258926 0.16668743 0.20602697 -0.14394677 0.08429307
-0.17903075 -0.086480126 0.24810344 -0.20377083 -0.15341905 0.17943834 -0.15323922 0.010857549
-0.1896207 0.14301358 -0.170993 -0.13018613 -0.2436393 0.05919487 -0.07476379 -0.043618
0.18288614 0.06986502 0.21885775 0.104853906 0.038855486 0.18302652 0.0039012288 -0.0021721583
0.11246195 0.2667099 -0.26757175 -0.12268131 -0.024497783 0.1826869 0.15593119 -0.29237634
-0.15127404 -0.23807146 0.29717728 0.08900856 -0.044608112 -0.073402 -0.060310367 0.17827372
00000000: 48e9 40be b95f 4dbd c39f ccbd f9f2 d83c
00000010: f1c5 263d 55b4 843d 7755 ef3d 939a a43c
00000020: 53c4 5fbe 6499 06be b4cb bf3c b3a6 b8bd
00000030: 682e 803e ce4d 863d ef62 8fbe c927 883e
00000040: fc3e 2f3e 8405 0b3e 9cd1 243e 3c1d 2d3d
00000050: efd7 793e 68e5 1a3e f088 03be b491 0bbe
00000060: 508c 82be 9e61 0dbe ae2a 133e 8c90 cfbd
00000070: cca3 2ebe 82cd 50be bcda fbbd 2774 353e
00000080: a459 55bd c1e0 963b 8d8a ffbd dfb0 37be
00000090: fc8e 683d 2cbc f6bd cc7e 87be 6ee4 14be
000000a0: 9b6f 9abb 5507 64bd a27e 9b3d 534a 823e
000000b0: 41f4 79bc 3edb 413e 79af a1bd ad54 5b3d
000000c0: 2682 84be cef0 f23d d7c1 133e f2b6 d43c
000000d0: ca49 70be 7fe9 613d db86 e03d 4620 c4bd
000000e0: 61c4 893c c81a 3d3e 58ee 613e 4b3b 1fbe
000000f0: 2d22 77bd 4207 ca3d 689b 3abb 8844 c63c
00000100: ff46 9a3a 0b9a 063e c3f5 473d 29cc be3d
00000110: 43bd 76be 18eb 403e fa9f 823e 5444 a63d
00000120: 9563 793d dec9 5cbd 1baa 8d3e 70cb afbd
00000130: 172b 5ebe 7e81 65be bed6 a0bd baac 68be
00000140: e653 0d3e 628e 753e 389b 0d3e a4ee d93d
00000150: cfb0 353e 53cf 1bbe 8c9e dabd b970 2ebd
00000160: 3074 3bbe d97b 93bd 106e 67bd b6a7 b2bc
00000170: 2f34 233e bc69 543e 82b8 58be b4ef b83d
00000180: 054b 493e 10e3 8abd 989a 4f3e 407a 433e
00000190: 5005 c23d fff8 483d 1243 d63c e5ab a2bd
000001a0: 0e63 e9bd 73d9 79bd 4156 463d dfb7 103e
000001b0: 2f01 80bd 0481 11be be35 5abe fb0e d03d
000001c0: 2c8b 253e f983 3b3e 6916 3e3e 2634 c8be
000001d0: 43d6 69bd b03c 64bd 7417 12be 691a 573e
000001e0: 5464 22bc 7475 f0bd 5ac3 99bd 17b6 4e3e
000001f0: 36f1 d7bd 8f98 c13d a9a3 5abe e853 5b3e
00000200: 83db 7abe 123b e3bd 5f98 8dbe f5f3 143d
00000210: e77b 17bd ce8d 86be f4d6 7e3d ab1a c5bd
00000220: 4bd9 903e a71b 9e3e 1dfb 0e3e 38a5 0abe
00000230: 4d6b 78bd 8815 893d 9629 8a3d 4ebc cc3d
00000240: 9721 67bd 6fbd 1f3d 2d4b 653e 100d 163e
00000250: 1c05 473d bc85 f1bb fcb2 50be c926 eabd
00000260: 4076 38bd a2c9 b3be c086 87bc bdf7 1d3e
00000270: 894f f43b 0c62 e9bc dfb4 7f3e cc44 353e
00000280: 4dbb e33c b007 b2bb e1b5 07bc 910a afba
00000290: 5da6 513d 8b9e a23d 8ab7 96bd c432 87bd
000002a0: 23ed 9bbd bd39 8bbe b59f 883e 34aa 9a3d
000002b0: 7ea3 78bd a48a 4c3e 06be 1bbd ed44 ccbd
000002c0: b54d 60be dc85 11be db6c acbc ef73 5c3e
000002d0: 41fb 3bbd 37c6 9bbd b4c0 213e aeab 3dbe
000002e0: bb96 033e 9314 0d3e 3c5b c93d 976b 3cbe
000002f0: 6d1e 273e 9292 58be dde8 003d 35a6 c83d
00000300: b34d 503e 1cf4 813e 3479 7e3d 75a0 18be
00000310: bd92 bebd a00c 513e 5eb8 26be 53c4 6fbd
00000320: aed6 12be 2ea7 3cbe 881e 0dbe ac47 893d
00000330: 5101 313d 183d 9cbd cf4a a7bc 7b16 6f3b
00000340: d708 dc3d ea32 57be 2d99 d33d 3395 e6bd
00000350: 1cb0 2a3e bcf8 523e c866 13be d8a1 ac3d
00000360: d653 37be 7e1c b1bd d40e 7e3e 4da9 50be
00000370: e219 1dbe afbe 373e beea 1cbe dce3 313c
00000380: ee2b 42be 2772 123e ca18 2fbe 834f 05be
00000390: 957c 79be 5276 723d c21d 99bd caa8 32bd
000003a0: 8146 3b3e 6415 8f3d 3f1c 603e a5bd d63d
000003b0: ee26 1f3d 4e6b 3b3e c2ab 7f3b c55a 0ebb
000003c0: 7352 e63d 338e 883e 2aff 88be 5740 fbbd
000003d0: 93af c8bc 4612 3b3e 6dac 1f3e 5ab2 95be
000003e0: 95e7 1abe 01c9 73be 9f27 983e 1f4a b63d
000003f0: ffb6 36bd ca53 96bd 0108 77bd 638d 363e

conv.0.bias f4 [64]
-0.21072334 -0.32165268 -0.30506527 0.068945825 0.044526696 -0.1209575 -0.062287234 -0.059162572
-0.16159253 -0.22409037 0.0035522974 0.016847229 -0.2009428 0.112993605 -0.1623295 -0.0037383365
-0.30125475 -0.10643231 -0.02324616 -0.11761271 0.19419646 0.008743405 -0.0007486916 0.17100349
0.038392637 -0.0036389024 0.08456387 -0.16954026 0.0860193 0.004341758 0.07563556 -0.10239142
-0.010972447 0.10110341 -0.078895636 0.011331133 0.048291467 -0.0029269895 -0.2507342 -0.0010244139
-0.08933586 -0.0018645282 -0.051293965 0.15693486 -0.2525432 -0.117305785 0.070152074 -0.0045808665
-0.07719458 -0.043686412 0.18958035 -0.36042392 -0.24038 0.0018752292 -0.0026874484 0.00029853403
0.09616914 0.14508794 0.024039133 -0.06389499 0.100522056 0.018188681 0.09714959 0.07449038
00000000: dcc7 57be a9af a4be 8431 9cbe 7833 8d3d
00000010: a061 363d 91b8 f7bd e620 7fbd 7454 72bd
00000020: 8378 25be f277 65be a9cd 683b 3303 8a3c
00000030: f3c3 4dbe 3169 e73d b439 26be e1fe 74bb
00000040: 103e 9abe 2ff9 d9bd bb6e bebc efde f0bd
00000050: 70db 463e 8040 0f3c d843 44ba 8a1b 2f3e
00000060: 9941 1d3d a77a 6ebb d32f ad3d f69b 2dbe
00000070: e32a b03d 4e45 8e3b d1e6 9a3d 98b2 d1bd
00000080: c7c5 33bc 4e0f cf3d 0994 a1bd 37a6 393c
00000090: 46cd 453d bcd2 3fbb 3c60 80be a045 86ba
000000a0: b8f5 b6bd 2f63 f4ba 9f19 52bd 88b3 203e
000000b0: 584d 81be 043e f0bd e4ab 8f3d 181b 96bb
000000c0: 3118 9ebd 86f0 32bd 5a21 423e 7c89 b8be
000000d0: 2d26 76be 40ca f53a e71f 30bb 8f84 9c39
000000e0: 53f4 c43d ef91 143e b7ed c43c 60db 82bd
000000f0: 82de cd3d 6e00 953c 5df6 c63d 6a8e 983d

conv.2.weight f4 [128, 64, 4, 4]
0.021031909 0.060581375 0.030137748 0.02467943 0.022503842 0.19748451 0.009219352 0.03671544
0.035279337 0.06970793 0.026282886 0.0343027 0.02265084 0.055681564 0.010767999 0.06017366
-0.006454757 0.03326208 0.036852833 -0.0027683731 -0.0043055345 0.063895956 0.07049692 0.010114771
-0.026828047 0.07448004 0.007652186 -0.0074354587 0.0068594576 0.013252116 -0.05387647 0.02392886
-0.04564828 0.066359155 -0.025102327 -0.03597665 -0.05662494 0.05228289 -0.040384725 -0.018930154
-0.010507086 -0.035020914 -0.0889214 -0.013819672 -0.030683763 0.027694406 -0.0027548664 -0.041518066
-0.0069132433 0.053601567 0.03404547 -0.01759115 -0.013190323 0.007325502 -0.026609886 0.013471633
-0.01809544 0.013197025 0.045242194 0.026434524 -0.009490914 -0.0085641425 -0.0035775183 0.021737378
-0.03752937 0.062819526 -0.0010437377 -0.017649965 -0.01755665 0.05126424 -0.03880439 -0.0005201414
0.028973348 0.025786284 0.013478323 -0.0037463885 0.0032734694 0.02502668 0.025499893 0.013208892
0.019437768 -0.009261582 0.030073686 0.013847811 -0.01904977 -0.005442307 0.03220258 0.030852295
-0.0096669635 -0.02863744 -0.0065119606 0.058962844 0.080503255 -0.028008098 0.0033879362 -0.023024939
-0.037794344 0.004874678 0.01939367 0.009790996 -0.04008476 0.12100882 0.038706984 0.027117724
-0.03912272 0.024555117 0.0076750475 0.015054065 0.0013001845 -0.022404827 -0.05744569 0.02694481
0.03311302 0.058614295 -0.00030937092 0.048859864 0.046073467 -0.013361216 0.017000856 -0.011009055
-0.05050697 0.034311797 0.035037365 -0.021303605 0.045223143 -0.034843974 -0.051494703 -0.041650403
0.02554956 -0.0040801535 -0.007534303 -0.0323694 0.06598747 0.0004592553 0.027515465 0.00047061878
-0.07782638 0.029161377 -0.057535008 -0.021364585 -0.013472263 -0.003123782 -0.012993015 -0.00315284
0.0023439948 -0.0046982304 -0.011336166 -0.0153060695 0.007849038 -0.03129148 0.028909162 0.0074572247
-0.03682651 0.048365224 0.05178224 0.004757021 0.020030161 0.06474601 -0.014399055 0.009617401
-0.015758056 -0.10792168 -0.037208512 -0.00400057 -0.05115628 -0.067888744 0.021771649 -0.0038485595
-0.0026411754 -0.07228652 -0.014909395 -0.029120365 -0.04348282 -0.039248444 -0.0564966 -0.021706877
-0.025884405 0.025663268 0.0056714443 0.020809224 0.013925993 -0.008912706 0.058123223 0.03946464
0.01447585 0.005192814 -0.0028498601 -0.0004912647 0.015014912 0.012639461 -0.0139881475 -0.013968367
-0.038797192 0.038964804 0.030728852 0.006505928 -0.0061140573 0.00094562065 0.017084992 -0.019366764
-0.025766049 0.07222611 0.03426867 -0.052580327 -0.018936904 0.08129736 0.08682406 -0.02387367
-0.01372428 0.034075018 0.00053903647 0.032455213 0.0022705921 -0.034144018 0.018199448 -0.00051192415
-0.006350583 -0.0012549529 0.0352942 0.02333958 0.00961944 0.01229579 0.02893366 0.026738908
-0.08253656 0.03733106 -0.006600078 -0.049079757 -0.028805159 0.03853746 0.027338035 -0.036594573
0.020284798 -0.0073298328 -0.03153494 0.007465651 -0.018335301 -0.0125923455 -0.005466932 0.018519118
-0.029438816 -0.03779943 0.123326614 0.075078614 -0.019612184 -0.036129575 -0.0668602 -0.06067988
-0.011321808 0.0014669417 -0.020157548 -0.079665445 0.00029902632 0.011971899 0.026495935 0.01159165
00000000: 1c4b ac3c 2d24 783d 70e3 f63c 842c ca3c
00000010: fa59 b83c 6139 4a3e c40c 173c ee62 163d
00000020: 1181 103d 08c3 8e3d 354f d73c fd80 0c3d
00000030: 418e b93c 5a12 643d 436c 303c a878 763d
00000040: 6d82 d3bb d23d 083d fff2 163d 986d 35bb
00000050: 7115 8dbb e2db 823d b060 903d 6db8 253c
00000060: 7ec6 dbbc fe88 983d 30bf fa3b 26a5 f3bb
00000070: 4dc5 e03b 671f 593c 93ad 5cbd 7506 c43c
00000080: b1f9 3abd 4fe7 873d 65a3 cdbc 405c 13bd
00000090: 8eef 67bd 9526 563d 746a 25bd 6913 9bbc
000000a0: ea25 2cbc 1772 0fbd 6c1c b6bd e86b 62bc
000000b0: 845c fbbc 61df e23c fd8a 34bb d90e 2abd
000000c0: 7d88 e2bb 518d 5b3d 4373 0b3d 511b 90bc
000000d0: 391c 58bc c40a f03b fafc d9bc 20b8 5c3c
000000e0: e33c 94bc 5638 583c e14f 393d 378d d83c
000000f0: c77f 1bbc 9e50 0cbc cc74 6abb 9612 b23c
00000100: 66b8 19bd 86a7 803d 07ce 88ba a996 90bc
00000110: f7d2 8fbc 74fa 513d 5af1 1ebd 195a 08ba
00000120: 8459 ed3c c23d d33c 2fd4 5c3c f885 75bb
00000130: b487 563b c104 cd3c 27e5 d03c 1c6a 583c
00000140: f43b 9f3c e4bd 17bc 175d f63c eee1 623c
00000150: 430e 9cbc 6155 b2bb dae6 033d f4bd fc3c
00000160: 2f62 1ebc 1199 eabc 4962 d5bb 0683 713d
00000170: e4de a43d 3d71 e5bc 2308 5e3b cc9e bcbc
00000180: 3ece 1abd c3bb 9f3b 79df 9e3c 6a6a 203c
00000190: eb2f 24bd 79d3 f73d 378b 1e3d fd25 de3c
000001a0: 253f 20bd d027 c93c f77e fb3b 53a5 763c
000001b0: f46a aa3a 548a b7bc 2c4c 6bbd 5dbb dc3c
000001c0: 85a1 073d 8b15 703d 1033 a2b9 4821 483d
000001d0: 88b7 3c3d 00e9 5abc 6145 8b3c 535f 34bc
000001e0: 66e0 4ebd 878a 0c3d 5783 0f3d e684 aebc
000001f0: e73b 393d 8eb8 0ebd 1cec 52bd 9d99 2abd
00000200: 504d d13c cfb2 85bb 50e2 f6bb c795 04bd
00000210: 7024 873d 34c8 f039 1d68 e13c 62bd f639
00000220: 7063 9fbd d7e3 ee3c d4a9 6bbd c804 afbc
00000230: c4ba 5cbc 5eb8 4cbb a8e0 54bc e19f 4ebb
00000240: b59d 193b 9df3 99bb 54bb 39bc 4fc6 7abc
00000250: 4099 003c 7f2b 00bd e8d2 ec3c bc5b f43b
00000260: 65d7 16bd 9d1a 463d 9d19 543d c9e0 9b3b
00000270: 4b16 a43c 8e99 843d 04ea 6bbc 4e92 1d3c
00000280: 0a17 81bc 0b06 ddbd f467 18bd 3717 83bb
00000290: 3f89 51bd 4109 8bbd 755a b23c 1d38 7cbb
000002a0: 9217 2dbb f40a 94bd 8946 74bc d58d eebc
000002b0: 0b1b 32bd fac2 20bd fb68 67bd 9fd2 b1bc
000002c0: 880b d4bc c63b d23c 86d7 b93b 1b78 aa3c
000002d0: d929 643c 9906 12bc 9e12 6e3d ada5 213d
000002e0: 1e2c 6d3c 7b28 aa3b b8c4 3abb 37c8 00ba
000002f0: 1b01 763c be15 4f3c 8b2e 65bc 94db 64bc
00000300: cee9 1ebd 8f99 1f3d 13bb fb3c ae2f d53b
00000310: 6e58 c8bb 87e3 773a d3f5 8b3c 0ca7 9ebc
00000320: 5213 d3bc 48eb 933d 4e5d 0c3d 785e 57bd
00000330: 9121 9bbc 3b7f a63d d0d0 b13d b792 c3bc
00000340: cddb 60bc 3f92 0b3d 204e 0d3a c2ef 043d
00000350: 37ce 143b 99da 0bbd 0217 953c a632 06ba
00000360: 8d18 d0bb 3b7d a4ba a790 103d a632 bf3c
00000370: db9a 1d3c 4874 493c 4806 ed3c 8e0b db3c
00000380: ee08 a9bd 74e8 183d 7845 d8bb db07 49bd
00000390: ccf8 ebbc 75d9 1d3d 04f4 df3c 31e4 15bd
000003a0: 4e2c a63c 182f f0bb c82a 01bd 6ba2 f43b
000003b0: ea33 96bc 2050 4ebc f323 b3bb 68b5 973c
000003c0: ac29 f1bc 93d3 1abd aa92 fc3d d1c2 993d
000003d0: bba9 a0bc 9bfc 13bd 00ee 88bd 778b 78bd
000003e0: 1b7f 39bc 6546 c03a 7121 a5bc a327 a3bd
000003f0: a2c6 9c39 c925 443c 010e d93c e7ea 3d3c

conv.2.bias f4 [128]
0.034904655 -0.019356824 0.033510365 -0.06788661 0.03795065 -0.009879096 -0.024894278 0.057918034
0.006584248 -0.019479692 -0.0031226897 -0.013090364 0.04478103 0.032989524 0.004211646 -0.018257162
-0.0132021615 0.028583843 -0.0229041 0.034593277 -0.017578699 0.005971838 -0.029731035 0.046837352
-0.029150292 -0.005212104 -0.002030234 0.077631384 -0.022146482 0.014311749 -0.029148925 0.011651112
-0.057700988 -0.05649659 0.01625439 -0.02450785 0.0048264996 0.04649819 -0.044476837 0.0021977196
-0.016596561 0.047849882 -0.024468854 -0.017274473 -0.010822348 -0.024454039 0.047983266 0.01468906
-0.0032437476 -0.027596164 -0.022663238 0.0002350435 -0.026793184 -0.003321096 -0.016209666 0.010677804
-0.024210919 0.0073853172 -0.029335802 0.06902485 -0.019519236 -0.020335626 -0.018383518 0.025459273
-0.04452424 -0.03122874 -0.007596491 -0.0045939246 -0.018766854 0.0077608014 0.053784613 0.056179002
-0.014279494 -0.052969728 -0.007488956 -0.018720696 0.0068772365 0.031215863 -0.046220947 -0.0006348968
0.05349904 -0.012162523 0.08032902 -0.03997136 0.00055660744 0.011313822 -0.02485334 -0.0044008517
-0.0691323 0.050299224 -0.026616758 0.020265691 0.0066992557 0.004243168 -0.072959706 -0.03475252
0.003460488 -0.0014265709 -0.06410211 0.030064242 0.019089716 0.016794922 0.047333017 -0.006098709
0.015334078 -0.049221613 0.032668777 0.038865548 0.02885561 0.00020545424 -0.02454632 -0.046451833
0.008011051 -0.00971415 -0.018800078 -0.0005550616 -0.06698774 0.062846206 -0.026075052 -0.018948194
-0.10814925 -0.0056783864 0.06264782 0.041229665 -4.784213e-05 -0.05195049 0.016266476 0.06385122
00000000: 2ff8 0e3d 3492 9ebc 2a42 093d 2308 8bbd
00000010: 2472 1b3d efdb 21bc 16ef cbbc 763b 6d3d
00000020: adc0 d73b e093 9fbc 0aa6 4cbb f778 56bc
00000030: 506c 373d 0620 073d d901 8a3b 0b90 95bc
00000040: e14d 58bc aa28 ea3c 61a1 bbbc aeb1 0d3d
00000050: 3401 90bc 68af c33b 808e f3bc 86d8 3f3d
00000060: 98cc eebc 4cca aabb ad0d 05bb 34fd 9e3d
00000070: 8a6c b5bc d37b 6a3c bac9 eebc 4ee4 3e3c
00000080: df57 6cbd f868 67bd ed27 853c b0c4 c8bc
00000090: 9d27 9e3b e374 3e3d 582d 36bd 9e07 103b
000000a0: 83f5 87bc 3dfe 433d e872 c8bc 3283 8dbc
000000b0: 3850 31bc d653 c8bc 1a8a 443d 62aa 703c
000000c0: 0e95 54bb 5a11 e2bc 41a8 b9bc 0276 7639
000000d0: 617d dbbc bfa6 59bb 22ca 84bc f5f1 2e3c
000000e0: fa55 c6bc 8800 f23b a351 f0bc e75c 8d3d
000000f0: cee6 9fbc e696 a6bc 0899 96bc f78f d03c
00000100: 0d5f 36bd 6ad3 ffbc fceb f8bb a288 96bb
00000110: f2bc 99bc 524e fe3b 414d 5c3d f41b 663d
00000120: 8af4 69bc c9f6 58bd eb65 f5bb 255c 99bc
00000130: 715a e13b 69b8 ff3c 2d52 3dbd 346f 26ba
00000140: cf21 5b3d 5245 47bc 8b83 a43d 02b9 23bd
00000150: 4be9 113a 9c5d 393c 3b99 cbbc 0535 90bb
00000160: 3c95 8dbd 8f06 4e3d 630b dabc 3c04 a63c
00000170: 6e85 db3b 460a 8b3b e66b 95bd a958 0ebd
00000180: 5bc9 623b c7fb baba f847 83bd 4949 f63c
00000190: 0962 9c3c 8195 893c 44e0 413d aed7 c7bb
000001a0: c93b 7b3c 9a9c 49bd b2cf 053d 7b31 1f3d
000001b0: 9a62 ec3c 346f 5739 5d15 c9bc 4744 3ebd
000001c0: c940 033c 1928 1fbc 9f02 9abc 8e81 11ba
000001d0: de30 89bd 83b5 803d 599b d5bc 3e39 9bbc
000001e0: 5b7d ddbd c211 babb 804d 803d 70e0 283d
000001f0: 19aa 48b8 09ca 54bd 4641 853c 6ec4 823d

conv.3.weight f4 [128]
1.1274676 1.129585 1.1368995 1.1297868 1.148953 1.1227387 1.0875418 1.1404123
1.11025 1.1001618 1.1110909 1.1006926 1.1154532 1.1993604 1.119033 1.1241196
1.0819714 1.1576936 1.0969998 1.0918015 1.2009647 1.2314421 1.1302079 1.1553897
1.2401042 1.1987549 1.1127042 1.0904894 1.1355085 1.1425691 1.0923669 1.0827544
1.1097283 1.0902522 1.4151012 1.1303242 1.112116 1.433941 1.1475447 1.130001
1.1061069 1.1241082 1.0816327 1.1259943 1.1882833 1.1125544 1.132565 1.135279
1.1233763 1.1203732 1.1636666 1.0976311 1.2080026 1.1054016 1.1659906 1.1858585
1.1332374 1.0922674 1.0953504 1.201795 1.1255819 1.168075 1.1687717 1.1218942
1.1120028 1.1175317 1.272793 1.121319 1.113504 1.2380595 1.1679813 1.0929
1.1065459 1.1679448 1.1125144 1.1341286 1.1107895 1.0987022 1.1209673 1.1001573
1.1228206 1.147297 1.2960014 1.0991713 1.103653 1.1157411 1.0997468 1.1188847
1.1167421 1.1078129 1.0969307 1.1180563 1.1424482 1.1147898 1.1133771 1.144196
1.1099507 1.178136 1.132476 1.1430744 1.1418204 1.0920359 1.1134797 1.1277661
1.1060865 1.1312795 1.10419 1.1005031 1.1211473 1.0909553 1.1222702 1.1020371
1.1546798 1.1030618 1.2388955 1.0954194 1.093668 1.110738 1.1581411 1.1337612
1.14805 1.1213328 1.1110924 1.1103283 1.2462882 1.1196331 1.108481 1.1774087
00000000: dc50 903f 3e96 903f ec85 913f db9c 903f
00000010: e410 933f e7b5 8f3f 9234 8b3f 08f9 913f
00000020: ac1c 8e3f 1ad2 8c3f 3a38 8e3f 7fe3 8c3f
00000030: 2cc7 8e3f a484 993f 793c 8f3f 27e3 8f3f
00000040: 0a7e 8a3f 4e2f 943f 7d6a 8c3f 27c0 8b3f
00000050: 36b9 993f e59f 9d3f a7aa 903f cfe3 933f
00000060: bcbb 9e3f cd70 993f 176d 8e3f 2895 8b3f
00000070: 5858 913f b43f 923f aed2 8b3f b297 8a3f
00000080: 940b 8e3f 628d 8b3f 0922 b53f 77ae 903f
00000090: d159 8e3f 618b b73f bfe2 923f dfa3 903f
000000a0: e994 8d3f c7e2 8f3f f172 8a3f 9520 903f
000000b0: ab19 983f 2f68 8e3f e4f7 903f d350 913f
000000c0: cbca 8f3f 6468 8f3f 07f3 943f 2d7f 8c3f
000000d0: d49f 9a3f cd7d 8d3f 2e3f 953f 36ca 973f
000000e0: ec0d 913f 6bcf 8b3f 7134 8c3f 6bd4 993f
000000f0: 1113 903f 7b83 953f 509a 953f 3b9a 8f3f
00000100: 1c56 8e3f 470b 8f3f e2ea a23f 6287 8f3f
00000110: 4d87 8e3f bc78 9e3f 6980 953f 26e4 8b3f
00000120: 4ca3 8d3f 377f 953f df66 8e3f 202b 913f
00000130: 5a2e 8e3f 46a2 8c3f db7b 8f3f f4d1 8c3f
00000140: 96b8 8f3f a1da 923f 60e3 a53f a5b1 8c3f
00000150: 8044 8d3f 9bd0 8e3f 81c4 8c3f 9d37 8f3f
00000160: 68f1 8e3f d0cc 8d3f 3a68 8c3f 781c 8f3f
00000170: be3b 923f 6fb1 8e3f 2483 8e3f 0475 923f
00000180: dd12 8e3f 29cd 963f f9f4 903f 4350 923f
00000190: 2c27 923f d5c7 8b3f 8186 8e3f a45a 903f
000001a0: 3e94 8d3f c4cd 903f 1956 8d3f 49dd 8c3f
000001b0: c181 8f3f 6ca4 8b3f 8da6 8f3f 8d0f 8d3f
000001c0: 8ccc 933f 2131 8d3f 2194 9e3f b436 8c3f
000001d0: 50fd 8b3f aa2c 8e3f f83d 943f 161f 913f
000001e0: 4df3 923f d587 8f3f 4738 8e3f 3d1f 8e3f
000001f0: 5f86 9f3f 2350 8f3f b5e2 8d3f 54b5 963f

conv.3.bias f4 [128]
-0.010802516 0.008789158 -0.049511354 0.0235085 0.09154854 0.014461882 0.022099188 -0.016443504
0.037306327 0.12980463 0.024861012 0.008080133 -0.017754067 -0.006223759 0.1332846 -0.09682311
0.011758187 -0.0039310954 0.0023580496 -0.024079671 -0.12122685 -0.06311613 -0.0019844223 -0.04026618
-0.07248431 -0.15398099 -0.048451964 0.0069921063 -0.04524011 -0.02079962 -0.0045771906 0.035997864
-0.009827753 0.006488821 -0.118223995 -0.0021315208 0.015034495 -0.20649679 0.1069464 0.048236933
-0.015212276 0.053317938 0.015996786 0.10462033 -0.015876925 0.09628702 0.02563434 -0.036539998
0.015445887 -0.032180343 0.06054846 -0.0020069971 0.01824171 0.1043443 0.042922378 0.043149944
0.014235874 0.01982244 -0.024373459 0.036282647 -0.049564075 -0.060153194 -0.103662364 0.009084729
-0.050311327 0.015068862 -0.0151212 -0.017553812 0.05088493 0.032912873 0.033721253 0.024356239
0.07290957 -0.017654097 0.13957411 -0.07648841 0.028428167 0.02108958 -0.06737486 0.013355211
0.074818425 -0.045088284 0.034364775 -0.018736284 0.100615285 0.016356729 0.012867907 0.04190642
-0.019962763 -0.0076256087 -0.011570913 -0.012940315 0.0297626 0.022933267 0.030020887 0.075434364
0.016064089 0.027710233 0.048176013 0.09749501 0.030558133 0.00790105 0.0649821 -0.018135069
0.012553435 0.06040289 0.016631467 0.0060620997 -0.032236572 0.042111576 0.06927262 0.018272672
0.067028366 -0.04340287 -0.06429861 0.02308878 0.021692153 -0.032407537 0.017927183 -0.0069505526
-0.017550673 -0.03828813 0.06420444 -0.008070135 0.009081808 -0.04691431 0.055553023 -0.03982023
00000000: 09fd 30bc 6700 103c 6bcc 4abd e694 c03c
00000010: cd7d bb3d 88f1 6c3c 5b09 b53c 87b4 86bc
00000020: 85ce 183d 81eb 043e 52a9 cb3c 8962 043c
00000030: fa70 91bc adf0 cbbb c27b 083e 324b c6bd
00000040: 69a5 403c 6bd0 80bb 8289 1a3b bb42 c5bc
00000050: c845 f8bd 0843 81bd 150d 02bb 26ee 24bd
00000060: a772 94bd 31ad 1dbe 9175 46bd 0a1e e53b
00000070: b24d 39bd f763 aabc 42fc 95bb 7f72 133d
00000080: 9504 21bc 2da0 d43b 6c1f f2bd fcb0 0bbb
00000090: 3e53 763c e573 53be b706 db3d 1794 453d
000000a0: e93c 79bc e963 5a3d b10b 833c 2f43 d63d
000000b0: 5310 82bc 2132 c53d 1bff d13c f7aa 15bd
000000c0: bf10 7d3c 89cf 03bd a901 783d d387 03bb
000000d0: a36f 953c 77b2 d53d 60cf 2f3d ffbd 303d
000000e0: 953d 693c ab62 a23c d9aa c7bc 1d9d 143d
000000f0: b303 4bbd 3263 76bd ef4c d4bd 1dd8 143c
00000100: 4013 4ebd 63e3 763c e9be 77bc 03cd 8fbc
00000110: b76c 503d a6cf 063d 4c1f 0a3d bc86 c73c
00000120: 9d51 953d 539f 90bc 84ec 0e3e f5a5 9cbd
00000130: 30e2 e83c 0ec4 ac3c d5fb 89bd d1cf 5a3c
00000140: 673a 993d 7eae 38bd 14c2 0c3d d67c 99bc
00000150: 630f ce3d 8cfe 853c ead3 523c 11a6 2b3d
00000160: f388 a3bc 3ee0 f9bb ed93 3dbc 9d03 54bc
00000170: b2d0 f33c 8cde bb3c 5dee f53c 557d 9a3d
00000180: d698 833c 9200 e33c 3654 453d 77ab c73d
00000190: 0d55 fa3c 6873 013c 5615 853d ff8f 94bc
000001a0: ecac 4d3c 0569 773d b73e 883c 94a4 c63b
000001b0: 7f0a 04bd 307d 2c3d cede 8d3d 92b0 953c
000001c0: 2b46 893d 35c7 31bd fdae 83bd ae24 bd3c
000001d0: beb3 b13c c4bd 04bd 07dc 923c 76c1 e3bb
000001e0: 6ec6 8fbc 04d4 1cbd 9e7d 833d 9938 04bc
000001f0: ddcb 143c 3829 40bd 918b 633d 8a1a 23bd

conv.3.running_mean f4 [128]
-0.028119724 -0.054282703 -0.10170609 -0.26502785 0.013358835 -0.12643358 0.08196148 -0.19242257
-0.15699811 -0.054888096 -0.008240524 0.07894786 -0.07049174 -0.012058799 -0.16056374 -0.10322912
-0.057813887 0.069933034 -0.19023441 -0.039950468 -0.074375644 0.14935797 -0.21814305 0.16614805
-0.18617266 -0.2511958 -0.25738993 0.124396004 -0.15158015 -0.18131205 -0.020875549 -0.0043315864
-0.24440515 0.006852718 0.058695544 -0.11931381 -0.04453324 0.08113503 -0.07205194 -0.17609915
-0.25159186 -0.09597747 0.2098952 -0.09071651 -0.073662765 -0.122387275 0.008101935 -0.10420562
-0.018825077 -0.13888991 -0.030155886 0.054703303 -0.1900322 0.013462736 0.08945747 0.045667343
-0.24819356 -0.07907141 -0.19040719 0.01319015 -0.17206444 0.16608082 -0.11321472 0.10736071
-0.0055356724 -0.1425704 -0.21929342 -0.16555308 -0.19789955 0.006533633 0.21349812 0.0019942003
-0.019898364 -0.24184132 -0.017294016 -0.25378484 -0.051696222 0.14326173 -0.20233558 0.20180297
-0.03395842 -0.082440786 0.02172058 -0.030701397 -0.11795393 -0.07820837 0.052481268 -0.18898681
-0.14371715 -0.20044325 -0.097630605 0.05902594 -0.22096348 0.11693856 -0.24820143 0.028809868
0.0979638 0.10735163 -0.2436044 -0.16162832 0.20293866 0.32268605 -0.09100469 -0.09051257
0.022304486 -0.23220037 -0.096907385 0.09924901 -0.06404128 -0.069739684 -0.058529884 -0.2894017
-0.11665718 0.008774682 -0.076621994 0.060958765 -0.1365767 -0.104366295 -0.14986615 -0.03000487
-0.31497514 0.011854328 0.019793749 0.039381027 0.024355067 -0.14361808 -0.051361892 -0.036934853
00000000: 565b e6bc 8a57 5ebd 484b d0bd bbb1 87be
00000010: 04df 5a3c ce77 01be 6cdb a73d 6c0a 45be
00000020: 1dc4 20be 57d2 60bd 4303 07bc 6aaf a13d
00000030: f95d 90bd 4592 45bc d26a 24be ca69 d3bd
00000040: 41ce 6cbd 0d39 8f3d cfcc 42be 1aa3 23bd
00000050: 4252 98bd 4cf1 183e e460 5fbe b722 2a3e
00000060: 0ca4 3ebe bc9c 80be 9dc8 83be 55c3 fe3d
00000070: d437 1bbe dea9 39be 3303 abbc fbef 8dbb
00000080: 5845 7abe c48c e03b bd6a 703d cc5a f4bd
00000090: 7d68 36bd 1f2a a63d f88f 93bd 5653 34be
000000a0: a6d0 80be d68f c4bd c4ee 563e 94c9 b9bd
000000b0: 81dc 96bd 2ea6 fabd fabd 043c c269 d5bd
000000c0: 0c37 9abc 2839 0ebe 7a09 f7bc 9210 603d
000000d0: cd97 42be cf92 5c3c 7a35 b73d ae0d 3b3d
000000e0: 7426 7ebe 31f0 a1bd 1afa 42be 801b 583c
000000f0: a931 30be 1711 2a3e 1edd e7bd efdf db3d
00000100: 9664 b5bb fafd 11be 748e 60be bf86 29be
00000110: 2ea6 4abe 1618 d63b 409f 5a3e 21b1 023b
00000120: e501 a3bc 40a5 77be 2eac 8dbc 16f0 81be
00000130: 6bbf 53bd 34b3 123e 0f31 4fbe 70a5 4e3e
00000140: fc17 0bbd b7d6 a8bd 5cef b13c 7f81 fbbc
00000150: d491 f1bd b62b a0bd 99f6 563d c285 41be
00000160: 972a 13be ff40 4dbe 8ef2 c7bd 2fc5 713d
00000170: 4044 62be 7c7d ef3d 8428 7ebe ac02 ec3c
00000180: 3fa1 c83d 2cdb db3d 6f73 79be e581 25be
00000190: 27cf 4f3e 1b37 a53e ab60 babd a85e b9bd
000001a0: e6b7 b63c efc5 6dbe 6177 c6bd 1143 cb3d
000001b0: 1328 83bd aed3 8ebd 08bd 6fbd 762c 94be
000001c0: f6e9 eebd afc3 0f3c feeb 9cbd e6af 793d
000001d0: c3da 0bbe ffbd d5bd 8376 19be c6cc f5bc
000001e0: 6c44 a1be a838 423c 8026 a23c 004e 213d
000001f0: 4784 c73c 9e10 13be d960 52bd 0049 17bd

conv.3.running_var f4 [128]
0.006802947 0.009007286 0.009253726 0.0071462565 0.011803927 0.011290291 0.016365062 0.0073497007
0.008034575 0.0091169635 0.010837138 0.013401362 0.012729976 0.038409315 0.013050048 0.0062670116
0.00923089 0.0096533 0.008381033 0.0099427365 0.010562595 0.017414857 0.0063062008 0.018560072
0.02000447 0.029262014 0.014508243 0.017277965 0.0069664624 0.018987468 0.014125034 0.024603546
0.009404933 0.015787588 0.01584683 0.006322287 0.0048409323 0.014372656 0.0071960073 0.007173432
0.011017956 0.011224656 0.027611732 0.0052543827 0.029851547 0.00643791 0.011505467 0.008292479
0.008303514 0.008779345 0.00908724 0.012609938 0.03771622 0.0055574863 0.015656456 0.008718673
0.0046182014 0.01432878 0.016364176 0.014590988 0.011686924 0.02782744 0.007596286 0.011478575
0.018451855 0.008481926 0.02354792 0.009012506 0.007106938 0.013893787 0.017616764 0.015304344
0.005390281 0.02236198 0.00694349 0.0075424174 0.019756392 0.017944274 0.0212652 0.013617232
0.009665138 0.01534532 0.022206502 0.034606572 0.006691634 0.0044931783 0.019337567 0.012274566
0.008238109 0.010502223 0.013235019 0.008144025 0.0062401057 0.024065321 0.0070173508 0.01257894
0.013447724 0.010259788 0.018173361 0.005676837 0.03406617 0.012902093 0.0069276574 0.007499586
0.00767587 0.013693206 0.0074297683 0.009122437 0.027146928 0.010338869 0.011520133 0.0097110635
0.012272119 0.018614657 0.010343299 0.009741481 0.007835646 0.024465945 0.012813445 0.0088460855
0.015768927 0.011860291 0.006397119 0.008714958 0.010317867 0.016418438 0.009932783 0.015172924
00000000: 41eb de3b 4c93 133c f19c 173c 252b ea3b
00000010: 4265 413c eafa 383c 0610 863c c2d5 f03b
00000020: 73a3 033c 515f 153c 408e 313c 6391 5b3c
00000030: 6491 503c 1653 1d3d decf 553c 815b cd3b
00000040: 293d 173c e028 1e3c 9a50 093c dce6 223c
00000050: bc0e 2d3c 9aa9 8e3c 3fa4 ce3b 4b0b 983c
00000060: 6ae0 a33c e4b6 ef3c fbb3 6d3c 858a 8d3c
00000070: ec46 e43b 9b8b 9b3c b06c 673c 608d c93c
00000080: 2617 1a3c f954 813c 36d1 813c 302b cf3b
00000090: afa0 9e3b 4a7b 6b3c 7ccc eb3b 1c0f eb3b
000000a0: a884 343c 9fe7 373c 0032 e23c f52c ac3b
000000b0: 3b8b f43c 1af5 d23b 6d81 3c3c 2edd 073c
000000c0: 760b 083c 3ed7 0f3c a6e2 143c ea99 4e3c
000000d0: 537c 1a3d 931b b63b f841 803c c4d8 0e3c
000000e0: 4854 973b 42c3 6a3c 2a0e 863c 0a0f 6f3c
000000f0: 837a 3f3c 5ff6 e33c 44ea f83b a210 3c3c
00000100: 5828 973c c7f7 0a3c 91e7 c03c 31a9 133c
00000110: 51e1 e83b c4a2 633c 0851 903c 12bf 7a3c
00000120: f4a0 b03b 7930 b73c 3786 e33b 6226 f73b
00000130: 28d8 a13c dfff 923c 5b34 ae3c d01a 5f3c
00000140: 875a 1e3c f06a 7b3c 69ea b53c 9fbf 0d3d
00000150: 7f45 db3b 833b 933b d169 9e3c 431b 493c
00000160: 22f9 063c 8411 2c3c b1d7 583c 846e 053c
00000170: cd79 cc3b a324 c53c cef1 e53b e617 4e3c
00000180: d853 5c3c ab18 283c 4de0 943c c304 ba3b
00000190: f888 0b3d 4d63 533c 6701 e33b 16bf f53b
000001a0: dd85 fb3b 7859 603c 6a75 f33b 4676 153c
000001b0: 3c63 de3c 5c64 293c f1be 3c3c 271b 1f3c
000001c0: ff10 493c c47d 983c f176 293c bc9a 1f3c
000001d0: 1561 003c ce6c c83c 7cef 513c 2cef 103c
000001e0: d62d 813c aa51 423c ec9e d13b 2fc9 0e3c
000001f0: 450c 293c f67f 863c 1dbd 223c db97 783c

fc.1.weight f4 [1, 6272]
-0.12853196 0.13189663 0.1566022 0.003088506 0.30822405 -0.016074203 -0.07964752 -0.09756313
0.10336998 -0.040989045 -0.048402715 -0.015525345 -0.03538767 -0.026944125 -0.10606468 0.051511765
0.08354974 -0.022900509 -0.011763599 -0.040730838 0.21027322 -0.09464311 0.013389664 -0.04837519
-0.10266309 -0.012117078 0.0061617447 0.11685092 -0.11134333 0.004141766 -0.061447933 -0.057158515
-0.025823629 -0.09276045 0.17074749 -0.10511413 -0.069142304 -0.09856097 -0.013561634 0.0066941683
-0.02701046 0.09856333 -0.07725553 -0.029530985 -0.079932585 -0.022966782 -0.087133735 -0.008643919
0.033041965 -0.01017752 0.058869336 0.06206929 0.122040905 -0.0031980446 -0.016713616 0.088552915
-0.0033467829 0.048473332 0.110218786 0.10502189 0.09490298 0.041272797 0.013484297 -0.09567812
0.04371943 -0.10741316 -0.18183535 -0.0341389 -0.05615121 0.030430906 -0.13498503 -0.013644182
-0.24661534 -0.10142188 -0.069397554 -0.07952911 0.024480423 -0.035519626 0.01958399 -0.0121580055
-0.02641731 0.011363788 0.036452923 0.0589683 -0.20004801 -0.09707325 -0.085495956 -0.102146305
-0.068968296 0.034330323 0.029481495 0.009599138 0.0484306 -0.009637658 0.08786157 0.111343324
0.08941642 0.040031157 -0.060206812 -0.10790419 -0.05100349 -0.050491806 -0.026315162 0.21969303
0.061824366 -0.071281694 -0.054101758 -0.027783858 -0.06428581 -0.056729462 0.12080816 0.070310675
-0.061286356 -0.04513546 -0.13174485 -0.10567832 -0.03393617 0.02382049 -0.034021802 -0.033187695
-0.06094589 -0.11769192 0.015033814 -0.0033526393 -0.020413686 -0.07173835 -0.003841748 0.01582465
-0.07826847 -0.009534516 -0.074500754 -0.0035275635 -0.03145536 -0.011242824 0.0039383285 -0.06810544
-0.058355797 -0.044299647 -0.03844803 0.1272639 -0.07852189 0.13175778 0.15704344 0.12792957
0.012245813 0.1525085 0.049926296 -0.086538956 0.08164368 0.19128937 -0.0271819 -0.12032986
-0.05339911 -0.08972131 -0.084006354 -0.0576461 0.015475955 0.16796255 0.15651703 0.046949334
-0.03840911 -0.096842244 -0.015849916 0.17909946 0.10486756 0.07448562 0.008031977 0.04446217
-0.088627994 -0.008664937 0.18889558 0.038528766 0.12791583 -0.023925465 0.015894732 -0.09999014
0.107511096 0.12395783 0.122085325 0.041521706 0.00038964773 0.030628847 -0.07974384 0.011440684
0.07312254 0.062421322 0.0054767136 0.017867843 -0.07020869 -0.1024011 0.14111775 0.0153411925
0.13566105 0.063756034 0.11508407 -0.047788255 -0.06075458 -0.020050526 -0.117813624 0.03918344
0.04178721 -0.033343054 -0.013277926 -0.050381124 -0.017394466 -0.023827465 0.06781284 -0.046838026
-0.025449464 0.02942961 -0.054317053 -0.04670411 0.0040885326 -0.013917703 -0.012275309 -0.0070733167
-0.07191239 -0.032554653 -0.015330024 0.042854216 -0.021599628 0.04794072 0.024696337 0.124555446
-0.07225521 0.19692177 0.076457724 0.07386754 -0.052984953 0.33258078 0.13529074 -0.072873
0.27257583 0.2222488 -0.016433442 0.17185532 0.3542535 0.22444062 -0.087303214 -0.074359156
-0.085350476 -0.026080374 -0.035703372 -0.0869753 0.1482413 -0.052908123 -0.06440357 -0.086640626
-0.06269754 -0.08482493 -0.07949302 -0.08113785 0.12972479 -0.08301897 0.23778677 0.11216385
00000000: e29d 03be e90f 073e 545c 203e 8868 4a3b
00000010: 8bcf 9d3e 0cae 83bc 3d1e a3bd 2ecf c7bd
00000020: a4b3 d33d 21e4 27bd ed41 46bd 045e 7ebc
00000030: a9f2 10bd edb9 dcbc 7038 d9bd 00fe 523d
00000040: 201c ab3d d999 bbbc 1cbc 40bc 61d5 26bd
00000050: dd51 573e 3fd4 c1bd 5260 5b3c 1025 46bd
00000060: 0741 d2bd b586 46bc 76e8 c93b 894f ef3d
00000070: f907 e4bd a7b7 873b d4b0 7bbd 0c1f 6abd
00000080: 138c d3bc 31f9 bdbd 6ed8 2e3e 1446 d7bd
00000090: 7b9a 8dbd 55da c9bd 9e31 5ebc c15a db3b
000000a0: 0a45 ddbc 92db c93d 2638 9ebd f7ea f1bc
000000b0: b2b3 a3bd d524 bcbc 2c73 b2bd 399f 0dbc
000000c0: 0357 073d 9dbf 26bc f920 713d 5e3c 7e3d
000000d0: 95f0 f93d 4996 51bb feea 88bc 3b5b b53d
000000e0: b355 5bbb f98b 463d 63ba e13d b715 d73d
000000f0: 7e5c c23d aa0d 293d 3eed 5c3c e4f2 c3bd
00000100: 2513 333d 6efb dbbd 0c33 3abe 3bd5 0bbd
00000110: d0fe 65bd 3c4a f93c 8439 0abe d98b 5fbc
00000120: bb88 7cbe 46b6 cfbd 4e20 8ebd 28e0 a2bd
00000130: 2b8b c83c 077d 11bd 9b6e a03c 5f32 47bc
00000140: 1d69 d8bc 2e2f 3a3c a94f 153d bf88 713d
00000150: 63d9 4cbe 57ce c6bd 8118 afbd 1532 d1bd
00000160: 403f 8dbd f49d 0c3d 2d83 f13c b445 1d3c
00000170: 2a5f 463d 44e7 1dbc c4f0 b33d f807 e43d
00000180: f51f b73d b6f7 233d 6b9b 76bd dffc dcbd
00000190: 09e9 50bd 7fd0 4ebd e592 d7bc 36f7 603e
000001a0: 8c3b 7d3d 23fc 91bd ce99 5dbd f99a e3bc
000001b0: 47a8 83bd 275d 68bd 456a f73d 0bff 8f3d
000001c0: 6707 7bbd f6df 38bd 1fe8 06be e06d d8bd
000001d0: a700 0bbd 3023 c33c 725a 0bbd d2ef 07bd
000001e0: 66a2 79bd 7608 f1bd 6350 763c f4b7 5bbb
000001f0: 9a3a a7bc 8eeb 92bd d6c5 7bbb b2a2 813c
00000200: 384b a0bd a936 1cbc da93 98bd b22e 67bb
00000210: 56d7 00bd d233 38bc 180d 813b dd7a 8bbd
00000220: 7d06 6fbd 8c73 35bd ae7b 1dbd 7851 023e
00000230: 16d0 a0bd 83eb 063e ffcf 203e f8ff 023e
00000240: aaa2 483c 302b 1c3e 847f 4c3d 563b b1bd
00000250: cd34 a73d 5ce1 433e 93ac debc 806f f6bd
00000260: 06b9 5abd cebf b7bd 860b acbd 511e 6cbd
00000270: dc8e 7d3c 60fe 2b3e 0046 203e f24d 403d
00000280: df52 1dbd 3a55 c6bd afd7 81bc d965 373e
00000290: cec4 d63d eb8b 983d 8e98 033c f71d 363d
000002a0: 9882 b5bd 61f7 0dbc d86d 413e 57d0 1d3d
000002b0: 5efc 023e 56ff c3bc ab35 823c a1c7 ccbd
000002c0: c72e dc3d 9add fd3d df07 fa3d aa12 2a3d
000002d0: a249 cc39 59e9 fa3c bd50 a3bd b571 3b3c
000002e0: 45c1 953d 80ad 7f3d 0176 b33b 955f 923c
000002f0: 93c9 8fbd abb7 d1bd 2c81 103e a059 7b3c
00000300: bbea 0a3e 8692 823d 32b1 eb3d 9ebd 43bd
00000310: cbd9 78bd 0041 a4bc 4548 f1bd d17e 203d
00000320: 1129 2b3d ba92 08bd a88b 59bc 705c 4ebd
00000330: d77e 8ebc d131 c3bc 75e1 8a3d 3bd9 3fbd
00000340: 657b d0bc 5e16 f13c 8f7b 5ebd cf4c 3fbd
00000350: 19f9 853b 1407 64bc 611e 49bc 48c7 e7bb
00000360: ce46 93bd 0758 05bd c82a 7bbc e787 2f3d
00000370: b4f1 b0bc 7d5d 443d f94f ca3c ed16 ff3d
00000380: 8afa 93bd dca5 493e de95 9c3d dd47 973d
00000390: c006 59bd 0748 aa3e a889 0a3e 703e 95bd
000003a0: 0f8f 8b3e 3095 633e 6d9f 86bc d7fa 2f3e
000003b0: b760 b53e c3d3 653e 07cc b2bd 9d49 98bd
000003c0: 3bcc aebd 82a6 d5bc b33d 12bd 1b20 b2bd
000003d0: 91cc 173e 30b6 58bd 05e6 83bd a470 b1bd
000003e0: 9167 80bd b1b8 adbd 3dcd a2bd 9a2b a6bd
000003f0: 93d6 043e da05 aabd 607e 733e 29b6 e53d
